watermark/upv/model/sub_net_b16_p1.pt (torch, 91506 bytes, 12 tensors)

layers.0.weight f4 [64, 16]
0.0037491445 0.14391018 0.18421066 -0.14692295 0.04092829 -0.002477476 -0.009042133 -0.5171448
0.26229218 0.035457674 -0.31166574 -0.37417695 0.19205448 -0.060293496 -0.42300692 0.09183966
0.41420984 -0.3130237 -0.022662671 -0.10757595 0.08040851 -0.33184695 0.297685 0.046311427
0.29338688 -0.49861464 0.29834935 0.11603595 -0.17877619 -0.17820291 -0.23391736 0.23041381
-0.114562094 -0.050680146 0.374532 0.068971336 -0.5852392 -0.49861196 -0.002297354 -0.0069216136
-0.42376158 -0.28473854 0.19327743 -0.08577388 -0.3403595 0.21148545 -0.06544429 -0.083699994
0.23906928 0.32887474 -0.30503607 -0.17495714 0.107152246 -0.15120856 -0.03623146 -0.0442249
-0.1287211 0.2715428 0.2824168 -0.2638331 -0.17675564 0.10748426 0.22711997 0.27694944
0.24038883 -0.30901426 0.33420682 -0.00082242157 -0.058526684 -0.39457047 -0.0042654034 0.38747215
-0.042582218 -0.04277285 -0.030897118 0.10817852 0.0149533795 -0.22904347 0.10201697 -0.49620855
-0.008652358 -0.10532646 -0.21053201 -0.13104157 -0.23409064 -0.2250988 0.0597349 -0.09616565
0.036722805 -0.10399311 -0.015200976 0.14187044 0.02305224 0.02483208 0.052841224 -0.17153679
-0.22219092 -0.017907226 0.2474636 0.08999167 -0.18711317 -0.21414061 0.26419953 0.11280609
-0.007237942 0.18051621 -0.08176716 0.2176727 0.20344925 -0.30488834 -0.47980034 0.14417422
-0.07603128 -0.020110965 0.19727166 0.04788958 0.23761426 0.044451542 -0.12177867 -0.5959145
-0.21697801 0.22624119 0.08837963 -0.2808587 0.023673736 0.40945926 0.050829545 -0.17734171
-0.1782643 0.23971732 -0.40849304 -0.23150417 -0.22604954 -0.09988194 -0.26454285 0.2399293
0.25918037 -0.2539099 0.44669074 0.10232509 -0.0012742024 0.10136157 0.13551255 -0.33392164
-0.20086685 -0.4319959 0.16653435 0.24686514 0.21401809 0.06436836 -0.013020766 0.1955869
-0.057196777 0.067506574 0.0019180439 0.23510048 0.24212016 -0.13458574 -0.14045554 -0.393213
0.10717986 0.30034325 0.12147284 -0.12838084 0.24475475 -0.313965 0.19284542 -0.11639045
-0.06025812 -0.19060116 0.18412553 0.19226319 0.14170977 0.035524894 -0.37768325 -0.4331525
-0.0442617 -0.3777341 -0.118852094 -0.09278296 -0.013168545 0.17003873 0.3217129 -0.4637496
-0.003389894 -0.1316063 -0.6040917 -0.38956153 -0.36546403 0.1347138 -0.35400087 0.07037645
0.32487422 -0.005176841 -0.4136707 0.16993113 -0.07758253 0.031114541 0.121416174 -0.2394944
-0.4999925 0.10584698 -0.3194756 -0.20742585 -0.119816236 0.21719526 0.18401365 0.10904838
-0.43208417 -0.7267346 -0.6050136 -0.20796458 -0.19722107 0.31637865 -0.06633014 -0.1649505
-0.31007805 0.20941752 0.14963424 0.29277566 -0.28325573 -0.068639345 0.037846074 -0.07828028
0.09435216 0.0549549 -0.033497404 0.28825116 -0.36720908 0.05231915 0.04437762 0.3159951
-0.43520638 -0.47895202 0.0014549149 0.19448838 -0.8176824 0.046128698 -0.035617888 -0.07209729
0.13749142 0.30628735 0.25513297 0.012059979 -0.14946601 -0.3893198 -0.09227892 -0.0849662
-0.1445694 -0.37993628 -0.12531075 0.08331187 0.26396406 -0.0035834126 -0.20239642 0.19203267
00000000: 35b4 753b 315d 133e b8a1 3c3e f872 16be
00000010: 6ca4 273d 265d 22bb 7425 14bc 9a63 04bf
00000020: 294b 863e 113c 113d a792 9fbe 1f94 bfbe
00000030: eea9 443e 50f6 76bd 5d94 d8be 6f16 bc3d
00000040: 5013 d43e a444 a0be 11a7 b9bc c850 dcbd
00000050: 38ad a43d d8e7 a9be 2b6a 983e 0db1 3d3d
00000060: ce36 963e 6b4a ffbe 3fc1 983e 42a4 ed3d
00000070: 1b11 37be d37a 36be 0888 6fbe 99f1 6b3e
00000080: 889f eabd fc95 4fbd a9c2 bf3e d840 8d3d
00000090: 3cd2 15bf 114a ffbe 348f 16bb b4ce e2bb
000000a0: 47f7 d8be 40c9 91be 85ea 453e 37aa afbd
000000b0: 9a43 aebe a48f 583e a807 86bd e76a abbd
000000c0: 94ce 743e 4562 a83e b02d 9cbe f727 33be
000000d0: a372 db3d 6bd6 1abe 7067 14bd 2b25 35bd
000000e0: 77cf 03be a807 8b3e ef98 903e 2215 87be
000000f0: 6eff 34be b520 dc3d 2392 683e 51cc 8d3e
00000100: 7d28 763e 1e37 9ebe 281d ab3e c797 57ba
00000110: adb9 6fbd 2405 cabe ccc4 8bbb c062 c63e
00000120: b16a 2ebd 9532 2fbd f41b fdbc b38c dd3d
00000130: 05ff 743c 5f8a 6abe 46ee d03d 0c0f febe
00000140: 9fc2 0dbc 66b5 d7bd b495 57be c32f 06be
00000150: 75b5 6fbe 4d80 66be 95ac 743d 7ff2 c4bd
00000160: a76a 163d 57fa d4bd 840d 79bc 7c46 113e
00000170: 0dd8 bc3c a56c cb3c 0a70 583d 57a7 2fbe
00000180: 0486 63be 2db2 92bc 1967 7d3e 8d4d b83d
00000190: 989a 3fbe ad47 5bbe 2945 873e e106 e73d
000001a0: 422c edbb 3ed9 383e 8a75 a7bd 98e5 5e3e
000001b0: 0055 503e 531a 9cbe 64a8 f5be 68a2 133e
000001c0: 4ab6 9bbd c0bf a4bc 9501 4a3e dd27 443d
000001d0: 2751 733e d212 363d 1867 f9bd da8d 18bf
000001e0: 7c2f 5ebe c5ab 673e 6100 b53d b6cc 8fbe
000001f0: 6cef c13c a5a4 d13e a432 503d 1199 35be
00000200: eb8a 36be 7578 753e 0026 d1be 6e0f 6dbe
00000210: 8879 67be e78e ccbd 2972 87be 07b0 753e
00000220: 4ab3 843e 7a00 82be a6b4 e43e d18f d13d
00000230: 2303 a7ba a896 cf3d cdc3 0a3e c7f7 aabe
00000240: 0ab0 4dbe 912e ddbe fb87 2a3e 37ca 7c3e
00000250: 8f27 5b3e 8fd3 833d 0d55 55bc ef47 483e
00000260: 2b47 6abd e340 8a3d e066 fb3a 2ebe 703e
00000270: 59ee 773e d8d0 09be 94d3 0fbe 3753 c9be
00000280: 1d81 db3d 97c6 993e c1c6 f83d 4476 03be
00000290: fda0 7a3e 05c0 a0be 4579 453e 1e5e eebd
000002a0: 38d1 76bd f32c 43be 678b 3c3e a4e0 443e
000002b0: 5e1c 113e 8d82 113d b35f c1be 2ac6 ddbe
000002c0: c24b 35bd 5d66 c1be ba68 f3bd fe04 bebd
000002d0: e2c0 57bc a21e 2e3e 8eb7 a43e 9670 edbe
000002e0: fc28 5ebb cdc3 06be c1a5 1abf 9c74 c7be
000002f0: 1a1e bbbe 6af2 093e 9a3f b5be 8721 903d
00000300: ea55 a63e 7da2 a9bb a5cc d3be 6d02 2e3e
00000310: 97e3 9ebd ece3 fe3c 0ba9 f83d 053e 75be
00000320: 04ff ffbe 4dc6 d83d 4e92 a3be 7167 54be
00000330: 3762 f5bd 6f68 5e3e 136e 3c3e c254 df3d
00000340: 233a ddbe 470b 3abf 2ce2 1abf abf4 54be
00000350: 52f4 49be 62fc a13e 19d8 87bd c9e8 28be
00000360: 8dc2 9ebe 8c71 563e b839 193e b1e6 953e
00000370: e506 91be c992 8cbd 7c04 1b3d 6951 a0bd
00000380: b53b c13d 6418 613d 9334 09bd a895 933e
00000390: d402 bcbe 9b4c 563d 4fc5 353d 1cca a13e
000003a0: 5fd3 debe 3339 f5be d8b2 be3a f627 473e
000003b0: a253 51bf 72f1 3c3d 10e4 11bd bea7 93bd
000003c0: 8dca 0c3e b2d1 9c3e caa0 823e 3897 453c
000003d0: 9e0d 19be ed54 c7be bbfc bcbd c202 aebd
000003e0: 000a 14be 0287 c2be 7651 00be 6a9f aa3d
000003f0: 4c26 873e b0d7 6abb 0241 4fbe 36a4 443e

layers.0.bias f4 [64]
-0.04526682 -0.0020665026 0.060196243 -0.16777068 0.1370496 -0.32412216 0.08092103 0.12888463
0.11347888 -0.12592795 0.12473844 0.28268477 -0.034774255 -0.16579472 -0.20170878 -0.29725823
-0.118077554 -0.15238258 0.13255481 -0.16308264 -0.2514725 -0.12704864 -0.079750925 0.16890259
-0.01463278 0.105618976 0.027314587 -0.27746683 -0.014781914 0.11953304 0.23487651 -0.15023391
0.02649643 -0.0039594145 -0.20814921 0.20897554 0.06441611 -0.27100885 0.02349328 0.09194543
-0.12720814 -0.15203129 0.04091044 -0.10271278 -0.14932829 -0.062173653 -0.08782318 -0.057103638
-0.20174178 -0.023044342 0.010997527 -0.2069244 -0.25192225 0.11868267 0.009010716 -0.046510644
-0.13269953 -0.063155115 -0.10458784 -0.34942758 -0.00046680565 -0.11103289 0.20121899 -0.13464819
00000000: b369 39bd 296e 07bb 5690 763d 14cc 2bbe
00000010: bb56 0c3e 57f3 a5be edb9 a53d 55fa 033e
00000020: 9d67 e83d 42f3 00be de76 ff3d 0fbc 903e
00000030: 736f 0ebd 17c6 29be bf8c 4ebe 3b32 98be
00000040: a5d2 f1bd 2e0a 1cbe 73bc 073e 23ff 26be
00000050: 01c1 80be 0a19 02be 7454 a3bd cdf4 2c3e
00000060: 54be 6fbc c34e d83d d7c2 df3c 2210 8ebe
00000070: d72f 72bc bdcd f43d 7883 703e ebd6 19be
00000080: 0b0f d93c fabd 81bb 1125 55be affd 553e
00000090: 98ec 833d acc1 8abe fb74 c03c e34d bc3d
000000a0: da42 02be 17ae 1bbe b591 273d 145b d2bd
000000b0: 84e9 18be cda9 7ebd a4dc b3bd 81e5 69bd
000000c0: 6695 4ebe 7dc7 bcbc f92e 343c fde3 53be
000000d0: f4fb 80be e60f f33d afa1 133c f281 3ebd
000000e0: 63e2 07be 7857 81bd 2632 d6bd 2ce8 b2be
000000f0: 98bd f4b9 3665 e3bd 5a0c 4e3e 37e1 09be

layers.2.weight f4 [64, 64]
0.21325251 0.053496704 -0.07806033 0.11037307 0.014434944 0.12780185 -0.076110944 -0.020751778
0.020003097 -0.07613228 -0.18305403 0.5581624 -0.3621595 0.051465906 -0.3698333 0.55027854
-0.49516693 -0.6575003 -0.16117382 0.010359139 -0.4750528 0.16469912 0.06163668 -0.32436982
-0.20555724 0.34609002 -0.051884633 0.117912345 -0.06807331 0.08522811 0.18594193 0.0906437
0.009871342 -0.07031603 0.055270106 -0.41953978 0.06353649 -0.016178468 -0.39918807 0.05713673
-0.16954727 -0.02725233 0.02471667 0.31456158 -0.27439505 -0.25973707 -0.020230016 0.03508153
0.186558 -0.5563965 -0.021955863 -0.4886465 0.019391635 -0.17190072 0.05358348 0.015743593
-0.14079466 0.3895913 -0.4777696 0.1811422 -0.16000177 -0.31570622 -0.33007866 0.013321676
0.13501884 -0.3611191 0.49235925 0.014084449 0.043807883 -0.030427188 -0.0332625 0.033251457
-0.14215143 -0.18757083 -0.26440498 -0.50518155 -0.4558517 -0.2829687 -0.15663634 0.07403842
0.24752744 -0.2849869 0.20869276 -0.12394893 0.0073737097 0.056524802 -0.33749813 -0.0017967577
-0.50937545 -0.19624756 -0.24827145 -0.09184182 -0.015199456 0.18439218 0.13591465 0.20557587
-0.1610981 0.17423835 0.1711666 0.035632245 0.05387476 0.09645651 -0.39065266 0.06644378
-0.5661365 -0.24635175 -0.1707199 0.2215722 0.47796637 -0.0811028 0.060714524 0.093908556
-0.13219745 0.27838024 0.030417372 -0.020639751 -0.1282875 0.032770988 -0.121175714 0.47427738
0.0010598544 -0.34834096 -0.036644764 0.1187332 0.06931731 -0.30056903 0.26346204 -0.036017526
0.15944725 -0.09772521 -0.3583062 -0.55483836 0.17449254 -0.014085973 0.12520155 0.07741614
-0.15168859 0.13016686 0.1377938 -0.20266165 -0.039537158 -0.17096724 -0.2348012 -0.25635654
0.1623406 0.13211751 0.13804224 -0.28462264 -0.1480754 -0.24347249 0.016999723 0.06127319
-0.1990568 0.053566452 0.084593184 -0.14455423 -0.40951958 0.2908359 -0.15327327 0.14178486
-0.617283 0.3271731 -0.31853297 -0.06680686 0.11460605 0.27784213 -0.23871045 -0.22498508
0.012887566 -0.4541809 0.38547605 0.14013435 0.06645465 0.054195758 -0.021818092 0.21925814
0.015916757 0.178054 0.1985003 -0.00309277 -0.18792783 0.14112702 -0.21390381 0.50169754
-0.14469683 -0.21084717 -0.27830362 -0.028409077 0.050584115 -0.1375039 -0.21911216 0.19423543
-0.01309475 -0.2373056 -0.32477665 -0.08043649 -0.25038546 -0.02745796 0.19651979 0.065645866
0.33066475 0.14411542 0.026158964 0.43983263 0.065448515 0.1363602 0.35332692 0.22400358
-0.2013726 -0.08207787 0.17835253 -0.2155568 0.21967049 -0.29114813 0.115144975 0.25534695
0.11537595 -0.17770915 0.13527475 0.21522757 0.3870675 0.043553416 -0.0017122669 0.11899965
0.5738583 -0.17528276 -0.20387445 -0.3937808 -0.058226354 0.08284086 0.11830705 -0.029908763
-0.019891862 0.060577706 -0.35463953 0.11949301 -0.5112016 0.020903409 0.021176312 -0.08620114
0.014900074 -0.13722526 -0.042663164 0.026658794 0.16725796 0.067200236 -0.0767593 -0.4456568
0.096470274 -0.35528302 0.16407299 -0.4532136 0.061012402 0.15884647 -0.04997642 -0.21515097
00000000: de5e 5a3e 5c1f 5b3d 18de 9fbd 470b e23d
00000010: 8b80 6c3c 7dde 023e 0ee0 9bbd a2ff a9bc
00000020: 89dd a33c 3eeb 9bbd 8472 3bbe bbe3 0e3f
00000030: f86c b9be eacd 523d ca5a bdbe 0edf 0c3f
00000040: 8586 fdbe f151 28bf c00a 25be 61b9 293c
00000050: 1f3a f3be e3a6 283e be76 7c3d cd13 a6be
00000060: 997d 52be b632 b13e fb84 54bd 077c f13d
00000070: 056a 8bbd 138c ae3d 9067 3e3e 67a3 b93d
00000080: 69bb 213c da01 90bd e862 623d ebcd d6be
00000090: 6b1f 823d b588 84bc 6162 ccbe 3408 6a3d
000000a0: cd9d 2dbe 4740 dfbc 9d7a ca3c 370e a13e
000000b0: 827d 8cbe 42fc 84be 6bb9 a5bc a7b1 0f3d
000000c0: 0f09 3f3e 0070 0ebf c8dc b3bc e02f fabe
000000d0: 35db 9e3c be06 30be 5a7a 5b3d b5f8 803c
000000e0: 7a2c 10be 8378 c73e 389e f4be 577d 393e
000000f0: 81d7 23be 3fa4 a1be 1200 a9be 2943 5a3c
00000100: 6142 0a3e 9ae4 b8be 8316 fc3e 76c2 663c
00000110: e56f 333d 7042 f9bc 423e 08bd ae32 083d
00000120: 2590 11be 9112 40be 1760 87be 9453 01bf
00000130: 6565 e9be 46e1 90be 4765 20be 75a1 973d
00000140: d577 7d3e cee9 91be 8eb3 553e f0d8 fdbd
00000150: 299f f13b 8d86 673d 8ecc acbe 2f81 ebba
00000160: 6e66 02bf 1ff5 48be df3a 7ebe 9017 bcbd
00000170: 2407 79bc 4ed1 3c3e 362d 0b3e 7b82 523e
00000180: e6f6 24be 8a6b 323e 4c46 2f3e 1ef3 113d
00000190: c8ab 5c3d fe8a c53d a003 c8be ad13 883d
000001a0: 52ee 10bf a243 7cbe 33d1 2ebe d3e3 623e
000001b0: 02b8 f43e 3a19 a6bd cbaf 783d 2153 c03d
000001c0: c55e 07be db87 8e3e da2d f93c b214 a9bc
000001d0: cc5d 03be df3a 063d f92a f8bd 7cd4 f23e
000001e0: d0ea 8a3a bf59 b2be d218 16bd 642a f33d
000001f0: 3cf6 8d3d 2fe4 99be 7fe4 863e 1d87 13bd
00000200: 2446 233e 2824 c8bd e973 b7be e309 0ebf
00000210: 2cae 323e dac8 66bc d634 003e 5a8c 9e3d
00000220: 4154 1bbe 764a 053e d119 0d3e 8986 4fbe
00000230: b7f1 21bd 0912 2fbe ba6f 70be 2a41 83be
00000240: 9d3c 263e d049 073e f25a 0d3e 0fba 91be
00000250: 14a1 17be da50 79be 0143 8b3c 99f9 7a3d
00000260: 8cd5 4bbe 7f68 5b3d 313f ad3d 0606 14be
00000270: 8dac d1be 71e8 943e abf3 1cbe 0d30 113e
00000280: 4206 1ebf 3c83 a73e c116 a3be 09d2 88bd
00000290: 94b6 ea3d 5341 8e3e 8370 74be 7d62 66be
000002a0: 5f26 533c 668a e8be 1e5d c53e 617f 0f3e
000002b0: 6019 883d 5ffc 5d3d dbbb b2bc 3585 603e
000002c0: dc63 823c ca53 363e aa43 4b3e 12b0 4abb
000002d0: 2770 40be 9a83 103e 9a09 5bbe 406f 003f
000002e0: 682b 14be 52e8 57be d07d 8ebe 27ba e8bc
000002f0: 4a31 4f3d d3cd 0cbe f05e 60be a7e5 463e
00000300: 5d8b 56bc 3d00 73be 2049 a6be e3bb a4bd
00000310: 8632 80be 84ef e0bc 7c3c 493e 5771 863d
00000320: e44c a93e fe92 133e 534b d63c be31 e13e
00000330: df09 863d 02a2 0b3e 44e7 b43e 3261 653e
00000340: 9e34 4ebe 7118 a8bd 0ca2 363e ecba 5cbe
00000350: 4df1 603e 5e11 95be 21d1 eb3d d6bc 823e
00000360: 3a4a ec3d 63f9 35be 7785 0a3e 9e64 5c3e
00000370: b62d c63e 1165 323d 256e e0ba 17b6 f33d
00000380: 61e8 123f 537d 33be 77c4 50be a39d c9be
00000390: c27e 6ebd 78a8 a93d f74a f23d 3903 f5bc
000003a0: 42f4 a2bc 5420 783d 5093 b5be c0b8 f43d
000003b0: 1cde 02bf a03d ab3c f279 ad3c 398a b0bd
000003c0: 711f 743c c784 0cbe 92bf 2ebd 8b63 da3c
000003d0: ac45 2b3e 47a0 893d fb33 9dbd 212d e4be
000003e0: 3592 c53d a8e7 b5be c002 283e 9d0b e8be
000003f0: 24e8 793d a6a8 223e 13b4 4cbd 8950 5cbe

layers.2.bias f4 [64]
-0.112417124 0.049243484 -0.09319155 0.102477774 0.10395286 0.009808988 -0.13488781 -0.18369284
-0.04094038 -0.15225106 7.556157e-05 -0.04513023 0.1156202 0.01579835 -0.15038846 0.07966046
0.059351 0.118505575 -0.056840755 -0.071879715 -0.019801447 -0.036843233 -0.20847219 -0.0513582
-0.058125228 0.06284756 -0.058926895 0.007806579 0.03898814 -0.04887142 -0.017233621 0.017402934
0.02446782 -0.017664962 -0.16417107 -0.13148187 -0.102416396 -0.105816126 -0.11171469 -0.11938114
-0.009819493 -0.058750477 -0.02324566 -0.07271784 -0.014725303 -0.07820593 -0.16875103 0.018418798
0.044372912 -0.09229633 -0.10602855 -0.18505824 -0.03720023 0.0062518613 -0.15435705 -0.057547547
0.17419024 0.13034382 0.030156322 0.012142223 0.11547402 -0.12345523 0.06914493 -0.047797278
00000000: f33a e6bd 89b3 493d 36db bebd dedf d13d
00000010: 3de5 d43d e1b5 203c 0820 0abe fa19 3cbe
00000020: 1ab1 27bd b4e7 1bbe cf76 9e38 7ada 38bd
00000030: 49ca ec3d 8b6b 813c 6fff 19be 0625 a33d
00000040: 091a 733d 0db3 f23d dad1 68bd ac35 93bd
00000050: a536 a2bc eee8 16bd bc79 55be fa5c 52bd
00000060: b814 6ebd 39b6 803d 545d 71bd 55ce ff3b
00000070: 07b2 1f3d 662d 48bd 862d 8dbc 9990 8e3c
00000080: bd70 c83c 1cb6 90bc 761c 28be 2fa3 06be
00000090: b0bf d1bd 20b6 d8bd acca e4bd 197e f4bd
000000a0: f0e1 20bc 57a4 70bd af6d bebc 17ed 94bd
000000b0: 6642 71bc 6e2a a0bd 12cd 2cbe 05e3 963c
000000c0: 5fc0 353d dc05 bdbd 7f25 d9bd e87f 3dbe
000000d0: 455f 18bd 6adc cc3b c60f 1ebe fab6 6bbd
000000e0: ed5e 323e da78 053e 640a f73c 2df0 463c
000000f0: a57d ec3d 18d6 fcbd db9b 8d3d 14c7 43bd

layers.4.weight f4 [64, 64]
-0.27157745 -0.027136436 0.17012633 0.0077623692 -0.17414755 0.35631815 0.020747745 -0.42155027
0.28342205 -0.51249665 -0.06618588 0.19814219 -0.23906344 0.16162406 -0.098049 -0.074127354
-0.42542568 0.28342998 0.22734289 -0.15096392 -0.20916983 -0.4628532 -0.096725374 0.06898557
-0.392339 0.05235969 -0.29260913 0.11621207 0.041337688 -0.118253574 -0.04054934 -0.03968973
-0.10873432 0.34713852 -0.07278647 0.06629065 0.026188185 0.2836719 -0.5783077 -0.13447998
0.2178196 -0.09003945 -0.32200298 -0.4538016 -0.04066799 0.13119765 0.14970085 0.3029017
-0.22077186 -0.16278549 -0.13110334 -0.4999613 0.038590446 0.37940878 0.02190685 0.08892244
-0.2957033 -0.009966254 0.031830046 -0.10302018 0.033666126 0.07321458 -0.21807015 -0.20690432
-0.035985395 -0.34547192 -0.03049016 0.13047051 -0.018844396 0.04996041 0.044093996 -0.22559825
0.029699907 -0.28968862 -0.14384961 0.26856524 -0.20879008 0.02590995 0.0041107885 -0.004879938
0.04107709 0.15565637 -0.12875064 0.09699652 -0.032588802 -0.026493644 -0.37265927 -0.22669914
-0.10512536 -0.033405434 -0.3301587 0.21398152 0.1998285 -0.10629687 -0.33932024 -0.4143235
-0.012793333 0.16231024 -0.11902271 -0.119351365 0.23671058 -0.016984316 -0.1159909 -0.3915528
0.26470867 -0.20842877 0.109871656 0.04040456 0.030683821 -0.40468988 0.024431141 0.027766861
0.004769164 -0.3197192 -0.47230062 -0.17986873 -0.16093694 0.20508982 -0.21469286 0.39306015
-0.57017845 -0.41744432 0.35274816 -0.047621388 -0.10590673 -0.04036668 -0.53365624 -0.14068475
0.26587436 -0.04585036 0.05263931 -0.06685666 -0.20653169 -0.21800184 0.06514462 -0.052318163
-0.24261959 -0.25390753 0.10323075 -0.2082421 -0.020855637 -0.03248759 -0.004049699 0.2856445
0.14812206 -0.30515417 0.04321403 0.34861442 -0.13008979 0.003351959 -0.3274473 -0.37297362
0.2995247 0.28448084 -0.09580554 -0.08012868 0.20850521 0.097273536 0.3011445 0.10347142
-0.19655989 -0.073963754 0.020944115 -0.35000193 -0.6791484 -0.0065485374 -0.06951737 -0.059081092
0.20723252 -0.27240208 0.33725926 0.17951123 0.043242913 0.12146235 -0.13664298 -0.15298428
0.26202253 -0.47857267 0.14233188 -0.03022035 0.16780424 0.08139388 0.19436559 -0.3612573
0.21652965 -0.3431776 -0.063505605 0.037070002 0.2230969 0.054104783 0.063545726 -0.044877864
0.31334886 -0.022141142 -0.062375244 0.083916135 0.019641064 -0.24792406 -0.100801714 0.14440168
-0.06091502 0.33045188 0.23635118 -0.70480907 0.07731087 -0.29415947 -0.01921024 -0.20085222
0.3505424 0.1474017 -0.3218637 0.28869608 0.05836154 0.49605283 0.27040452 -0.011572461
0.11819341 -0.020231714 0.0014311636 -0.08665801 -0.07848264 0.08061773 0.16545512 0.12133474
0.042607576 -0.16132718 0.25654563 -0.09512018 -0.22082001 -0.31668153 0.07985468 0.024953434
-0.11577383 -0.22858022 0.085482046 -0.15288831 0.20101231 -0.034348242 -0.49783266 -0.5014469
0.0043116254 0.20680219 0.45542762 0.47590843 0.18859965 0.13034202 -0.10540205 -0.39518353
0.23093186 -0.27499336 -0.05488545 0.03186301 -0.0016181149 -0.020814443 0.03698797 0.07529852
00000000: 330c 8bbe 3b4d debc 9935 2e3e 795b fe3b
00000010: bc53 32be 556f b63e 2df7 a93c 70d5 d7be
00000020: b21c 913e fb32 03bf 768c 87bd c9e5 4a3e
00000030: 0ccd 74be c780 253e eacd c8bd 15d0 97bd
00000040: 65d1 d9be bc1d 913e 93cc 683e 4996 1abe
00000050: 9e30 56be 18fb ecbe f417 c6bd 4e48 8d3d
00000060: a8e0 c8be 1d77 563d ddd0 95be 9800 ee3d
00000070: b551 293d ee2e f2bd 1117 26bd b391 22bd
00000080: 19b0 debd 24bc b13e 1311 95bd 64c3 873d
00000090: 9b88 d63c 713d 913e f90b 14bf 1fb5 09be
000000a0: 1a0c 5f3e 9a66 b8bd 93dd a4be af58 e8be
000000b0: 7a93 26bd ad58 063e 2e4b 193e ee15 9b3e
000000c0: 0512 62be 3db1 26be f43f 06be edfa ffbe
000000d0: 0411 1e3d de41 c23e ff75 b33c f81c b63d
000000e0: 6c66 97be 8049 23bc 3960 023d 3efc d2bd
000000f0: 7ee5 093d 87f1 953d c84d 5fbe bade 53be
00000100: 6c65 13bd b2e1 b0be 80c6 f9bc 109a 053e
00000110: 905f 9abc 49a3 4c3d e89b 343d 3a03 67be
00000120: 384d f33c 1152 94be 504d 13be 6281 893e
00000130: 11cd 55be 1a41 d43c cbb3 863b e3e7 9fbb
00000140: 7340 283d 6264 1f3e 35d7 03be 1da6 c63d
00000150: d67b 05bd 3309 d9bc 32cd bebe d223 68be
00000160: f74b d7bd 23d4 08bd 900a a9be f91d 5b3e
00000170: d89f 4c3e 2cb2 d9bd 62bb adbe 3622 d4be
00000180: 219b 51bc a834 263e 2ec2 f3bd 7d6e f4bd
00000190: 4264 723e b122 8bbc a38c edbd 9c79 c8be
000001a0: e587 873e 5a6e 55be 6404 e13d 407f 253d
000001b0: a35c fb3c 8333 cfbe d123 c83c 5477 e33c
000001c0: a646 9c3b 3cb2 a3be 63d1 f1be 822f 38be
000001d0: a7cc 24be 1103 523e 72d8 5bbe 2e3f c93e
000001e0: 37f7 11bf 43bb d5be 689b b43e a50e 43bd
000001f0: a1e5 d8bd 8857 25bd b29d 08bf aa0f 10be
00000200: af20 883e 96cd 3bbd 519c 573d 25ec 88bd
00000210: 0b7d 53be e03b 5fbe 8b6a 853d 924b 56bd
00000220: 4571 78be 2b00 82be a56a d33d 6b3d 55be
00000230: 71d9 aabc b511 05bd 56b3 84bb ff3f 923e
00000240: 4fad 173e 2b3d 9cbe 3201 313d 977d b23e
00000250: 4236 05be 8aac 5b3b 2ca7 a7be 66f6 bebe
00000260: 4d5b 993e 79a7 913e b235 c4bd 811a a4bd
00000270: 6482 553e 5937 c73d 9d2f 9a3e d3e8 d33d
00000280: ff46 49be 4f7a 97bd fe92 ab3c 7433 b3be
00000290: abdc 2dbf 1d95 d6bb 1f5f 8ebd 04ff 71bd
000002a0: c334 543e 4978 8bbe 3fad ac3e cbd1 373e
000002b0: 7b1f 313d 41c1 f83d 23ec 0bbe e9a7 1cbe
000002c0: d127 863e 7a07 f5be 73bf 113e ab90 f7bc
000002d0: e0d4 2b3e d6b1 a63d c607 473e b8f6 b8be
000002e0: f3b9 5d3e f9b4 afbe 3a0f 82bd b7d6 173d
000002f0: 8473 643e fa9c 5d3d 4324 823d dad1 37bd
00000300: 436f a03e 5761 b5bc 2f7d 7fbd 39dc ab3d
00000310: 4ce6 a03c cedf 7dbe 2171 cebd 09de 133e
00000320: 0782 79bd fd30 a93e 0b06 723e 5e6e 34bf
00000330: 2955 9e3d 129c 96be cb5e 9dbc 34ac 4dbe
00000340: 4b7a b33e 79f0 163e 52cb a4be f9cf 933e
00000350: 830c 6f3d a3fa fd3e 7672 8a3e 6b9a 3dbc
00000360: 630f f23d fbbc a5bc e295 bb3a c179 b1bd
00000370: 82bb a0bd e91a a53d 116d 293e 597e f83d
00000380: 4885 2e3d f432 25be f359 833e 5ece c2bd
00000390: a41e 62be 1524 a2be da8a a33d 256b cc3c
000003a0: d41a edbd ef10 6abe 3611 af3d c18e 1cbe
000003b0: 2cd6 4d3e beb0 0cbd ece3 febe d35e 00bf
000003c0: 8948 8d3b f4c3 533e cf2d e93e 45aa f33e
000003d0: 4420 413e 6178 053e 08dd d7bd 7f55 cabe
000003e0: 6779 6c3e eecb 8cbe 91cf 60bd ca82 023d
000003f0: ed16 d4ba 0d83 aabc b380 173d 1c36 9a3d

layers.4.bias f4 [64]
0.12443419 0.073048584 0.041624025 0.06384693 -0.09706397 -0.07837941 0.01107042 0.0029980838
-0.013839062 -0.080022745 0.051697258 0.02031117 0.027717354 -0.092880666 0.16340542 0.049690664
-0.14400218 -0.15611546 0.08001035 0.041872 0.020513084 0.10842696 -0.10350471 -0.14904837
-0.15301326 -0.0022550179 0.036578283 -0.11519438 -0.11293485 0.06386841 0.02345233 0.041581303
-0.22736089 0.06969626 0.052312564 -0.10236848 -0.10914486 0.2318853 -0.090561174 -0.091387816
0.038305115 -0.06877038 0.059372734 0.0077892607 -0.046820752 -0.18845621 -0.14160374 -0.20775817
-0.07234776 -0.02111547 0.14268887 -0.065401845 -0.03280156 0.11134534 -0.0025291287 -0.12930538
0.024884246 0.06865601 0.03407194 -0.17757738 -0.21144155 -0.1620802 -0.021608206 -0.0867138
00000000: 5ad7 fe3d 7f9a 953d f47d 2a3d 2ec2 823d
00000010: 7ac9 c6bd 6285 a0bd b560 353c 807b 443b
00000020: 3cbd 62bc f7e2 a3bd 81c0 533d 9c63 a63c
00000030: 810f e33c 3838 bebd c053 273e 7088 4b3d
00000040: 4f75 13be bbdc 1fbe 77dc a33d f981 2b3d
00000050: 0e0b a83c f40e de3d 47fa d3bd 23a0 18be
00000060: 82af 1cbe ecc8 13bb 1cd3 153d 08eb ebbd
00000070: 634a e7bd 71cd 823d 1a1f c03c 2851 2a3d
00000080: 4bd1 68be eabc 8e3d b345 563d 91a6 d1bd
00000090: 5787 dfbd 5773 6d3e 2378 b9bd 8929 bbbd
000000a0: d3e5 1c3d 7cd7 8cbd d330 733d 0e3d ff3b
000000b0: 1ec7 3fbd aafa 40be 9200 11be 8fbe 54be
000000c0: 102b 94bd 5afa acbc 081d 123e 67f1 85bd
000000d0: ee5a 06bd 0709 e43d bdbf 25bb a168 04be
000000e0: 0cda cb3c 869b 8c3d 058f 0b3d d8d6 35be
000000f0: 2284 58be 5af8 25be b103 b1bc 0197 b1bd

layers.6.weight f4 [64, 64]
-0.08718758 -0.0706024 -0.04908649 -0.026779365 -0.03962858 0.08867643 -0.041776452 -0.004599005
-0.214173 -0.12906195 -0.104982324 -0.056468792 0.017671889 -0.102775924 0.07502371 -0.027360784
0.1082028 -0.0070574875 -0.056027915 -0.16305782 -0.06829237 0.006479263 -0.00032699108 0.08416725
-0.11428515 -0.08360554 -0.10125008 -0.10756257 -0.024529973 -0.05724792 0.004277282 -0.16740546
0.076801695 -0.029534435 0.011629994 -0.071160235 -0.13045624 -0.11757203 -0.066782646 -0.0034381624
-0.18384099 -0.11287148 0.024035487 0.0722227 -0.077556886 0.0063742734 0.059907287 0.02878698
0.12029898 -0.07587038 -0.06964683 0.101069875 -0.0065797013 -0.12104468 0.024659041 -0.12449425
-0.012591543 0.06166923 -0.0581651 -0.072703205 -0.08652718 0.033836972 -0.11650296 -0.04737713
-0.0433145 0.019772936 -0.118535325 -0.11076387 -0.057103302 -0.081965044 -0.06637719 0.03164806
-0.05169457 -0.07683061 -0.03395125 0.023276957 -0.116453476 -0.074845135 -0.09078815 0.053520225
-0.08008782 0.106170535 -0.097647615 -0.08585166 -0.0942724 -0.096162006 -0.112612054 0.11754598
-0.04624028 0.009456411 -0.06719138 0.10697527 -0.111400306 0.046440043 -0.02844134 0.08016737
0.0027338862 0.054460958 -0.08279108 0.11869693 0.059784234 -0.0031512608 0.050706528 0.018549968
-0.020824967 -0.066003196 0.006179827 -0.11343439 -0.03476487 -0.027368143 0.074399605 0.074346885
-0.1004595 0.011929408 -0.03780709 0.07077342 0.085247725 0.012592019 0.0087729525 -0.06238237
0.03326096 0.097503155 -0.0006051621 0.028866315 0.061863974 0.04026656 0.037621636 0.023359403
-0.087793395 0.41700277 -0.21807078 -0.008787864 -0.06491592 -0.5209781 0.108925186 -0.07138863
0.0499601 -0.1933276 -0.22364096 0.031394687 0.0798634 0.10016028 -0.060545027 -0.08422468
-0.03039091 -0.00067436317 0.092533715 -0.20152038 0.112252004 0.11925447 0.12205422 0.06732631
-0.06595488 -0.10740812 -0.38995865 -0.0029875413 -0.007354615 -0.16098748 0.54307944 -0.12137137
0.09629398 -0.5344858 0.48748505 0.15378127 -0.01625552 -0.18541919 -0.18671562 0.011045298
0.22483362 0.24004151 0.025844315 -0.36592132 0.16354439 0.07206206 0.118152834 0.256444
0.05232332 -0.5526822 0.11840094 -0.01667767 -0.5674585 0.27151534 -0.21515992 -0.07927698
0.2529065 -0.34617645 -0.23536155 0.015685694 -0.48061013 -0.26101452 0.06773806 0.03680315
-0.16236274 -0.09722659 0.019172177 -0.039245415 -0.092111066 0.0077818814 -0.0010641968 0.110308334
-0.019694824 -0.11539769 -0.04186098 0.045829497 0.052756213 -0.06474597 0.03574907 -0.13540235
-0.053234905 0.03926162 0.052858133 -0.03173029 -0.055122584 -0.04127052 0.02378045 -0.083475664
-0.11928335 0.10757383 -0.055877108 0.0046099573 -0.009865805 -0.13143909 0.005448072 0.048211135
0.021570913 -0.12964526 -0.060028248 0.09352628 0.102555595 -0.036777545 -0.017306251 0.065105304
-0.101956025 -0.073248 0.088879436 -0.02652201 0.063414566 0.08421072 0.08841804 0.044207457
0.1120751 -0.092700854 0.071529336 0.0321969 -0.10844111 -0.05112658 -0.062212396 0.045242798
-0.13200259 -0.116807766 0.030876987 -0.079724416 0.063612 -0.09924901 -0.10944141 0.098736346
00000000: 678f b2bd fe97 90bd ea0e 49bd 6660 dbbc
00000010: 9451 22bd fd9b b53d c91d 2bbd 40b3 96bb
00000020: 2b50 5bbe d128 04be f900 d7bd d24b 67bd
00000030: a3c4 903c 2f7c d2bd 08a6 993d b923 e0bc
00000040: 6e99 dd3d 7f42 e7bb 877d 65bd a1f8 26be
00000050: dfdc 8bbd ff4f d43b 0070 abb9 e15f ac3d
00000060: 550e eabd 6239 abbd 345c cfbd c449 dcbd
00000070: 15f3 c8bc cc7c 6abd 7128 8c3b 566c 2bbe
00000080: 354a 9d3d 33f2 f1bc bb8b 3e3c 75bc 91bd
00000090: 5296 05be 9bc9 f0bd 57c5 88bd cb52 61bb
000000a0: d040 3cbe 2a29 e7bd 12e6 c43c 7fe9 933d
000000b0: 25d6 9ebd 48df d03b 5861 753d acd2 eb3c
000000c0: 505f f63d ee61 9bbd ffa2 8ebd b9fd ce3d
000000d0: 899a d7bb 46e6 f7bd c201 ca3c d7f6 febd
000000e0: c24c 4ebc e098 7c3d 873e 6ebd 6be5 94bd
000000f0: 2a35 b1bd a398 0a3d 1b99 eebd 850e 42bd
00000100: 8c6a 31bd dafa a13c a6c2 f2bd 2bd8 e2bd
00000110: 27e5 69bd 4add a7bd c4f0 87bd 65a1 013d
00000120: afbd 53bd 5e59 9dbd 7710 0bbd 51af be3c
00000130: 297f eebd 6848 99bd 23ef b9bd 0638 5b3d
00000140: 1505 a4bd f06f d93d 79fb c7bd ffd2 afbd
00000150: e311 c1bd 96f0 c4bd 26a1 e6bd f2bb f03d
00000160: 7366 3dbd 10ef 1a3c a29b 89bd da15 db3d
00000170: d825 e4bd ea37 3e3d d0fd e8bc ca2e a43d
00000180: 002b 333b 7412 5f3d 5f8e a9bd 6017 f33d
00000190: 50e0 743d 6285 4ebb a6b1 4f3d 1af6 973c
000001a0: 1f99 aabc af2c 87bd 2580 ca3b 4a50 e8bd
000001b0: 9c65 0ebd 2833 e0bc d25e 983d 2e43 983d
000001c0: b6bd cdbd 9073 433c 9bdb 1abd a8f1 903d
000001d0: 5c96 ae3d c14e 4e3c 6ebc 0f3c a884 7fbd
000001e0: a53c 083d bcaf c73d bea3 1eba 0d79 ec3c
000001f0: 1465 7d3d 8cee 243d 2519 1a3d 385c bf3c
00000200: 06cd b3bd 6381 d53e f24d 5fbe f9fa 0fbc
00000210: a3f2 84bd d25e 05bf 2b14 df3d 3434 92bd
00000220: f6a2 4c3d acf7 45be 2302 65be b797 003d
00000230: 6c8f a33d d520 cd3d 10fe 77bd fd7d acbd
00000240: 5cf6 f8bc bfc7 30ba 5182 bd3d 5c5b 4ebe
00000250: 61e4 e53d b03b f43d 90f7 f93d 60e2 893d
00000260: 5a13 87bd caf8 dbbd a9a8 c7be a0ca 43bb
00000270: fbfe f0bb e7d9 24be 4107 0b3f 8e91 f8bd
00000280: c735 c53d 10d4 08bf a497 f93e d678 1d3e
00000290: 4c2a 85bc 87de 3dbe 6132 3fbe 56f7 343c
000002a0: c93a 663e 71cd 753e 75b7 d33c 0a5a bbbe
000002b0: 2e78 273e 4695 933d 1dfa f13d a14c 833e
000002c0: fa50 563d 957c 0dbf 317c f23d 9c9f 88bc
000002d0: f644 11bf 0f04 8b3e e252 5cbe f85b a2bd
000002e0: f67c 813e 0a3e b1be 9e02 71be 497f 803c
000002f0: 8812 f6be b2a3 85be 41ba 8a3d e6be 163d
00000300: 6b42 26be bc1e c7bd f80e 9d3c cdbf 20bd
00000310: baa4 bcbd 27ff fe3b 857c 8bba 56e9 e13d
00000320: 0a57 a1bc a055 ecbd 6b76 2bbd b6b7 3b3d
00000330: e616 583d 8999 84bd 9e6d 123d eaa6 0abe
00000340: d80c 5abd cbd0 203d c581 583d 9ff7 01bd
00000350: 38c8 61bd 470b 29bd 38cf c23c 4af5 aabd
00000360: d44a f4bd ab4f dc3d 65df 64bd 200f 973b
00000370: 2fa4 21bc f897 06be be85 b23b 0a79 453d
00000380: 7cb5 b03c bac1 04be 2ee0 75bd b58a bf3d
00000390: ab08 d23d 0da4 16bd d7c5 8dbc ee55 853d
000003a0: 52ce d0bd 0c03 96bd 6c06 b63d b044 d9bc
000003b0: 7fdf 813d ac76 ac3d 8414 b53d e112 353d
000003c0: a187 e53d f2d9 bdbd f97d 923d e6e0 033d
000003d0: 5f16 debd 1b6a 51bd 6dd2 7ebd 8350 393d
000003e0: b02b 07be e938 efbd bcf1 fc3c 8e46 a3bd
000003f0: 0247 823d 1143 cbbd d122 e0bd 4836 ca3d

layers.6.bias f4 [64]
-0.012460216 -0.14292264 -0.046792276 -0.048886806 -0.10741896 -0.11446602 0.13431068 0.10847918
-0.12873892 -2.0676931e-05 0.019688588 -0.09324977 0.12405925 0.1481775 0.13091306 -0.13104884
-0.16150998 0.08979305 0.14364067 0.1264317 0.06954142 0.038162764 -0.03169878 -0.07764114
0.004585817 0.00080915325 0.13206694 0.13254169 -0.013825862 -0.07886378 -0.050986208 0.079329945
-0.11232581 -0.12311561 -0.12916054 -0.07846496 -0.13923535 -0.032979973 -0.06117158 -0.13671413
-0.16519286 -0.18127145 -0.071860895 0.039709 -0.10113313 -0.026658373 -0.027456984 0.042712014
0.056102816 0.14433461 -0.14810425 -0.082409434 0.12586577 0.11091916 -0.10146292 -0.08558577
0.030622605 -0.074606895 -0.12227443 0.06407002 -0.10304551 0.15517455 0.10637263 0.17313643
00000000: ef25 4cbc 505a 12be 42a9 3fbd 883d 48bd
00000010: 79fe dbbd 296d eabd bd88 093e 552a de3d
00000020: 23d4 03be 5f73 adb7 f649 a13c bcf9 bebd
00000030: c712 fe3d d8bb 173e 130e 063e ab31 06be
00000040: df62 25be 6be5 b73d 8a16 133e 5077 013e
00000050: bb6b 8e3d 8f50 1c3d 94d6 01bd 5102 9fbd
00000060: 9f44 963b 5b1d 543a 8e3c 073e 02b9 073e
00000070: de85 62bc 5583 a1bd ead6 50bd bd77 a23d
00000080: 130b e6bd 0924 fcbd a942 04be 3db2 a0bd
00000090: b693 0ebe 0216 07bd 0d8f 7abd cafe 0bbe
000000a0: 5128 29be 399f 39be ce2b 93bd e8a5 223d
000000b0: e31e cfbd a962 dabc 78ed e0bc cbf2 2e3d
000000c0: 11cc 653d 74cc 133e a4a8 17be 47c6 a8bd
000000d0: f5e2 003e 9629 e33d cbcb cfbd 9847 afbd
000000e0: 42dc fa3c 80cb 98bd 046b fabd 2537 833d
000000f0: 8609 d3bd 14e6 1e3e e5d9 d93d ad4a 313e

layers.8.weight f4 [64, 64]
-0.040837593 0.05369723 -0.16693468 0.045396883 0.15027054 -0.056854133 -0.3358277 -0.07563674
0.063280635 0.19602816 0.41375908 -0.15515503 0.24930863 0.30209562 -0.06878309 -0.0651342
0.09645543 0.24239942 0.51197046 -0.27967972 -0.119233765 -0.17277284 -0.09039448 0.090652265
0.3994922 0.20781179 0.077297136 -0.30595884 -0.049792867 -0.048009105 0.11627394 -0.0014626173
0.036256872 0.045955934 0.037258834 -0.046730112 -0.11958139 -0.2972277 0.10319378 -0.08170336
-0.017872242 0.08058254 0.0036459537 -0.0041519715 0.019417083 -0.21055727 0.18387848 0.15602627
0.3521088 -0.31653148 0.030557 -0.11290398 -0.35417518 0.092324406 -0.026004013 0.04745118
0.28433654 0.10519653 0.08885228 0.05445693 0.00084101886 0.22492197 -0.011927944 0.39157426
-0.080353945 0.040863343 -0.0529071 -0.10219332 0.050817687 0.012231946 0.0152450595 0.007378678
-0.047850832 -0.038328093 -0.021698143 -0.11839228 0.05656616 0.030969206 -0.09896459 -0.10258263
0.10697999 -0.066336 0.042489026 -0.05525922 0.054768134 -0.029475056 0.12366744 -0.08656168
-0.0023148982 -0.023460533 0.039570257 -0.12568668 -0.04491233 0.09348732 0.0882602 0.07227444
0.085106015 0.0033412576 0.030115698 0.014000711 0.021552281 -0.06515632 0.047969308 0.09422523
-0.134701 -0.07707887 0.06249605 -0.1344784 -0.026768625 0.017030703 -0.025481574 -0.11870772
-0.01584275 -0.009730471 -0.11804638 -0.0475387 -0.17772539 0.031626873 0.07862272 -0.022745436
-0.020813208 0.09585436 -0.011492789 0.08179244 0.05442277 -0.14482124 0.04776974 -0.007960136
0.0014269054 0.10683589 0.0874076 -0.09884365 0.011906194 -0.06271918 -0.10026328 -0.036119957
0.03213063 -0.07014463 -0.084749706 0.07441516 -0.10182056 -0.116524786 0.031213397 -0.028236896
-0.0050807595 -0.13764764 -0.027049705 0.015822535 -0.052757762 0.038377095 -0.11387573 0.0012533367
-0.11918388 -0.021086294 -0.029515699 0.022462346 0.08416876 -0.111414865 0.11548698 -0.023221755
-0.08965461 -0.11874105 -0.052360192 0.046754897 -0.020932913 0.010799408 -0.07670312 0.11116104
0.048988104 0.11899333 0.01465641 -0.10667333 0.012922615 -0.035284836 -0.047827978 -0.10115743
-0.008123815 0.018845677 0.05891101 -0.030253261 -0.010164714 0.10297975 -0.079784095 0.07307483
-0.106660426 -0.07456082 -0.1141448 -0.08049001 -0.064641416 -0.06705889 -0.15289229 0.02624258
-0.02787795 -0.08942479 0.06135229 0.034277666 0.017078876 0.1300644 -0.043993518 0.084214665
-0.032279823 -0.18453231 0.100965045 0.034773786 0.068326965 -0.063617975 0.06664499 -0.07790184
-0.050242297 -0.10534811 0.03638701 -0.12565343 -0.015508996 -0.0063021537 0.09231736 -0.06486198
0.001534426 0.03834304 0.040197242 -0.11333242 -0.050996125 0.04326698 0.038238246 0.09795293
-0.039412677 0.07446535 -0.092846006 0.1479776 0.10691054 0.010467563 0.06643833 -0.018282944
0.06990376 0.034236223 -0.0042524682 -0.14026758 0.009432816 -0.10628417 -0.06298243 -0.14761163
0.11011534 0.12936923 0.0995805 -0.04357344 -0.09962823 -0.011429585 0.12021483 0.05688408
-0.049571633 -0.04869157 -0.10194045 -0.04554295 0.09214676 -0.0912277 -0.0019117079 -0.07330578
00000000: 5245 27bd a0f1 5b3d edf0 2abe 15f2 393d
00000010: 85e0 193e e1df 68bd 9cf1 abbe 6fe7 9abd
00000020: 4799 813d 9bbb 483e 3bd8 d33e f6e0 1ebe
00000030: c34a 7f3e 47ac 9a3e 26de 8cbd 1465 85bd
00000040: 6d8a c53d 8e37 783e 7f10 033f 2e32 8fbe
00000050: d530 f4bd 5deb 30be be20 b9bd e5a7 b93d
00000060: 3e8a cc3e 9dcc 543e f64d 9e3d a3a6 9cbe
00000070: 9bf3 4bbd 32a5 44bd 0821 ee3d 4bb5 bfba
00000080: 1682 143d 4a3c 3c3d b89c 183d 1368 3fbd
00000090: 16e7 f4bd 3b2e 98be 4357 d33d 1754 a7bd
000000a0: cf68 92bc 7508 a53d f4f0 6e3b 430d 88bb
000000b0: 9310 9f3c 539c 57be a44a 3c3e 5ac5 1f3e
000000c0: 9b47 b43e 6a10 a2be ac52 fa3c 343a e7bd
000000d0: 7356 b5be 9414 bd3d 5e06 d5bc 2b5c 423d
000000e0: 8f94 913e 4771 d73d 2ff8 b53d 3b0e 5f3d
000000f0: d277 5c3a f251 663e 6c6d 43bc 6c7c c83e
00000100: 9c90 a4bd 5260 273d 1eb5 58bd bb4a d1bd
00000110: 3526 503d 8068 483c 6ac6 793c d6c8 f13b
00000120: 3cff 43bd ebfd 1cbd 4ec0 b1bc a777 f2bd
00000130: ebb1 673d 22b3 fd3c f2ad cabd d816 d2bd
00000140: 5318 db3d 2bdb 87bd f908 2e3d 7e57 62bd
00000150: 8d54 603d ac75 f1bc 5b45 fd3d 4047 b1bd
00000160: 8cb5 17bb 4e30 c0bc 6c14 223d 02b4 00be
00000170: fef5 37bd 4876 bf3d c4c1 b43d 9f04 943d
00000180: 104c ae3d 00f9 5a3b 32b5 f63c 3d63 653c
00000190: 698e b03c ad70 85bd 777b 443d 28f9 c03d
000001a0: 0fef 09be 87db 9dbd dcfb 7f3d b5b4 09be
000001b0: e049 dbbc f983 8b3c bcbe d0bc 081d f3bd
000001c0: a8c8 81bc 8e6c 1fbc 4dc2 f1bd f1b7 42bd
000001d0: a5fd 35be 2e8b 013d f304 a13d a354 babc
000001e0: 7680 aabc 4a4f c43d 404c 3cbc cb82 a73d
000001f0: 69ea 5e3d 054c 14be 34aa 433d 3b6b 02bc
00000200: 0007 bb3a c6cc da3d c102 b33d 8a6e cabd
00000210: 3212 433c ea72 80bd d656 cdbd 85f2 13bd
00000220: 689b 033d fda7 8fbd 4191 adbd fa66 983d
00000230: 4c87 d0bd 8ca4 eebd 3db3 ff3c 1051 e7bc
00000240: 807c a6bb 81f3 0cbe 5897 ddbc 439e 813c
00000250: 8618 58bd 4d31 1d3d ae37 e9bd 0047 a43a
00000260: ae16 f4bd 2abd acbc e8ca f1bc f402 b83c
00000270: ac60 ac3d 7a2d e4bd 7084 ec3d 8d3b bebc
00000280: d69c b7bd 822e f3bd a477 56bd 1082 3f3d
00000290: 807b abbc 00f0 303c 8616 9dbd 66a8 e33d
000002a0: c0a7 483d c6b2 f33d 7021 703c 8c77 dabd
000002b0: 60b9 533c d586 10bd 45e7 43bd a02b cfbd
000002c0: c019 05bc 4062 9a3c ac4c 713d b0d5 f7bc
000002d0: e789 26bc 0ce7 d23d d865 a3bd 42a8 953d
000002e0: c870 dabd 58b3 98bd c0c4 e9bd f2d7 a4bd
000002f0: b862 84bd 2c56 89bd cc8f 1cbe aefa d63c
00000300: 4c60 e4bc 5824 b7bd 8a4c 7b3d bd66 0c3d
00000310: 00e9 8b3c 9a2f 053e 8c32 34bd bd78 ac3d
00000320: d937 04bd 0af6 3cbe c3c6 ce3d f56e 0e3d
00000330: 02ef 8b3d 244a 82bd 2b7d 883d 008b 9fbd
00000340: deca 4dbd c0c0 d7bd 8c0a 153d 4bab 00be
00000350: 7219 7ebc 4c82 cebb e210 bd3d 5cd6 84bd
00000360: cb1e c93a 970d 1d3d dda5 243d d41a e8bd
00000370: 50e1 50bd b838 313d b59f 1c3d 8c9b c83d
00000380: 306f 21bd 4a81 983d 0c26 bebd 7187 173e
00000390: eaf3 da3d 2480 2b3c d210 883d 1dc6 95bc
000003a0: b429 8f3d 483b 0c3d 4a58 8bbb 4ea2 0fbe
000003b0: 198c 1a3c 84ab d9bd effc 80bd 8127 17be
000003c0: 2784 e13d 5e79 043e dcf0 cb3d 107a 32bd
000003d0: e309 ccbd 2743 3bbc 3133 f63d 48ff 683d
000003e0: a00b 4bbd d070 47bd 28c6 d0bd 3f8b 3abd
000003f0: 71b7 bc3d 97d5 babd 4692 faba 5721 96bd

layers.8.bias f4 [64]
0.14935246 -0.06119685 -0.09234717 -0.04379016 -0.10593967 -0.1105434 0.15450096 -0.1269396
0.17813955 0.19911005 -0.101949215 -0.08034547 -0.08535344 0.16569862 -0.025427252 -0.0947871
0.061768956 0.18432416 0.19331825 -0.03789885 -0.20437188 0.058190804 0.06457075 -0.14070484
0.10591616 -0.08960721 -0.13259244 -0.10876751 -0.08047004 -0.14395435 -0.019837325 -0.1198532
-0.11734085 -0.12757476 0.12916341 -0.16691133 -0.0873546 0.1366295 0.12858663 0.11013423
0.20588121 0.112444855 0.13946563 0.1999581 -0.05448051 0.01186788 0.0840771 -0.15119386
-0.0128494045 -0.069141105 0.17557776 0.16445684 0.17307937 -0.09714774 0.10306972 -0.10228323
-0.11556922 -0.038013306 -0.058349602 -0.12948263 0.19649622 0.14291441 -0.11493073 -0.11643542
00000000: daef 183e 8ca9 7abd 8320 bdbd 505d 33bd
00000010: e6f6 d8bd 9464 e2bd 8035 1e3e 74fc 01be
00000020: 376a 363e 81e3 4b3e c0ca d0bd 2a8c a4bd
00000030: c9cd aebd e6ac 293e d04c d0bc bd1f c2bd
00000040: 7201 7d3d 79bf 3c3e 38f5 453e d33b 1bbd
00000050: dd46 51be 7b59 6e3d ab3d 843d ee14 10be
00000060: 92ea d83d fc83 b7bd 50c6 07be 80c1 debd
00000070: 7acd a4bd c568 13be e381 a2bc 9875 f5bd
00000080: 6650 f0bd f5a2 02be 6a43 043e ceea 2abe
00000090: f8e6 b2bd 9be8 0b3e 37ac 033e 0e8e e13d
000000a0: 86d2 523e 7d49 e63d 14d0 0e3e d1c1 4c3e
000000b0: f526 5fbd 7f71 423c 9d30 ac3d 90d2 1abe
000000c0: 4f86 52bc da99 8dbd a8ca 333e 6067 283e
000000d0: b83b 313e 65f5 c6bd 3816 d33d df79 d1bd
000000e0: 8eaf ecbd d7b3 1bbd feff 6ebd 1897 04be
000000f0: 4e36 493e 2858 123e cd60 ebbd b275 eebd

layers.10.weight f4 [64, 64]
-0.04651624 0.06172928 0.10133112 -0.03520917 -0.057647124 0.054361608 0.015101145 0.06914644
0.3836106 0.38318697 0.05630368 0.13616668 0.2212206 0.094591536 -0.054487962 -0.08853176
0.34691003 0.30184454 0.33926576 -0.104736425 -0.015556905 -0.032129586 -0.14664039 -0.10794728
-0.10027145 0.077198304 0.083772935 -0.07427587 0.11240588 -0.13270128 -0.11067401 0.018059034
0.038649835 -0.12268271 0.18587072 -0.07941891 0.07367862 -0.03793176 0.111211926 0.009995499
0.44305086 0.1932125 0.027242186 -0.12031889 0.13853897 0.21562372 -0.2572775 -0.028361736
0.09269324 0.021620626 0.42390546 0.22522037 0.21550047 0.029741459 -0.3799714 0.0580095
0.055146392 -0.086219825 -0.032312322 0.010993958 -0.18458916 0.21497642 0.045602724 -0.015225455
0.39743614 0.040581826 0.043378185 0.08095857 0.013593972 0.04949327 0.3218613 0.10104958
-0.0942083 -0.34397188 -0.005392341 -0.066851854 0.017098382 -0.11956773 -0.09423953 0.11349961
-0.30294648 -0.19989078 -0.2839346 -0.016135339 0.005181984 0.26256534 0.31145635 -0.034417562
0.37104458 -0.005387459 0.08674745 0.08214536 0.048707306 -0.047266446 0.06494728 -0.09998688
0.028337758 -0.0062249918 -0.22301766 0.012116676 -0.10807409 -0.019416906 -0.3066899 -0.1238417
-0.3989976 0.10036211 -0.1011332 0.03569814 -0.07285237 -0.16647834 0.15534306 -0.004591745
-0.07550248 0.050324146 -0.19690882 -0.20954183 -0.17427433 0.11757925 0.39224625 -0.010477711
0.07519218 -0.018850528 0.14547084 -0.034052864 0.44303063 -0.35117918 0.08948497 -0.10771091
0.1586096 -0.05754679 0.1338395 -0.02157545 -0.11641039 0.0659242 0.37403685 0.019051049
0.015327345 -0.4137034 0.080809094 0.060307316 0.07469635 -0.2511874 0.09718724 0.15679617
-0.2901698 -0.24979192 -0.42085475 0.06569006 0.07162373 0.35820192 0.25575063 0.03193723
0.33127823 0.104894675 -0.060695425 -0.038184296 -0.100406736 -0.00027683756 0.050093412 -0.053350314
-0.016572854 -0.09329257 -0.14941831 0.06571535 -0.084256075 0.16458164 -0.20202883 -0.055342093
-0.32495645 -0.039563987 -0.11601618 -0.11361667 0.09777668 -0.31489474 0.20937881 -0.023157766
0.0998475 0.0370955 0.0032197195 -0.11670511 -0.21387458 -0.11704543 0.27501187 0.28444293
-0.074155 -0.0632193 0.15673847 -0.096667975 0.35647073 -0.4710978 -0.13083154 -0.016688138
0.3298792 -0.08636585 0.015616666 0.12377862 0.008396834 0.09796715 0.12437691 -0.077563465
-0.2838956 -0.43622735 -0.07514961 -0.041209094 -0.13684942 -0.12437714 0.054978665 0.016577372
-0.44048473 -0.3337646 -0.34835514 0.11212564 0.26004508 0.10285645 0.24433218 0.10018551
0.34238905 0.059652302 -0.040695794 0.10425477 0.11104244 -0.09257204 -0.020825462 -0.051084243
0.011522858 -0.051170636 -0.056409657 0.19009629 0.0818446 0.034783352 -0.29184487 -0.26607072
-0.49296582 -0.024366146 -0.2045836 0.16205528 0.013016616 -0.2440247 0.2911208 -0.0863539
-0.006621881 -0.0027832126 -0.30791432 -0.29550466 -0.085351005 0.06931545 0.29810828 0.051077962
-0.0054291235 0.046877027 0.14014295 -0.134532 0.32852626 -0.50584805 -0.051736128 -0.03136058
00000000: d087 3ebd d7d7 7c3d b186 cf3d 7e37 10bd
00000010: 641f 6cbd 47aa 5e3d cb6a 773c a69c 8d3d
00000020: 9c68 c43e 1531 c43e b09e 663d 476f 0b3e
00000030: a787 623e 35b9 c13d c52e 5fbd 2450 b5bd
00000040: 319e b13e 5e8b 9a3e 3eb4 ad3e 0d80 d6bd
00000050: 64e2 7ebc 509a 03bd e628 16be 7713 ddbd
00000060: 1e5b cdbd 251a 9e3d 2591 ab3d f31d 98bd
00000070: 0e35 e63d d8e2 07be 0ea9 e2bd 8af0 933c
00000080: 4a4f 1e3d 1341 fbbd e554 3e3e 62a6 a2bd
00000090: d1e4 963d 555e 1bbd 14c3 e33d 29c4 233c
000000a0: 90d7 e23e 7fd9 453e 012b df3c c069 f6bd
000000b0: 29dd 0d3e 77cc 5c3e e0b9 83be df56 e8bc
000000c0: f4d5 bd3d bd1d b13c 230a d93e 2ba0 663e
000000d0: 28ac 5c3e 5ca4 f33c 9d8b c2be 5f9b 6d3d
000000e0: 2fe1 613d 0594 b0bd ed59 04bd 0120 343c
000000f0: f104 3dbe c722 5c3e ecc9 3a3d 3074 79bc
00000100: c07c cb3e 2139 263d 53ad 313d 9bcd a53d
00000110: 40b9 5e3c 75b9 4a3d 01cb a43e 15f3 ce3d
00000120: 48f0 c0bd 151d b0be 3cb2 b0bb a0e9 88bd
00000130: e811 8c3c eddf f4bd a800 c1bd 7c72 e83d
00000140: cd1b 9bbe 2bb0 4cbe e05f 91be 422e 84bc
00000150: a2cd a93b f76e 863e 3577 9f3e 6ef9 0cbd
00000160: 8ef9 bd3e 4889 b0bb a6a8 b13d d43b a83d
00000170: 5081 473d 769a 41bd 1403 853d ecc5 ccbd
00000180: 9624 e83c 04fb cbbb be5e 64be 0685 463c
00000190: f355 ddbd 3410 9fbc 7506 9dbe b8a0 fdbd
000001a0: 6a49 ccbe a68a cd3d ec1e cfbd 3638 123d
000001b0: a033 95bd 4c79 2abe 4012 1f3e 5976 96bb
000001c0: 0ba1 9abd b120 4e3d 77a2 49be 2292 56be
000001d0: f874 32be 64cd f03d 80d4 c83e b5aa 2bbc
000001e0: 5cfe 993d 6c6c 9abc 4ff6 143e 047b 0bbd
000001f0: e9d4 e23e c2cd b3be e543 b73d 8a97 dcbd
00000200: 8e6a 223e 2fb6 6bbd 390d 093e 00bf b0bc
00000210: 9268 eebd 4403 873d c281 bf3e f210 9c3c
00000220: 8b1f 7b3c efd0 d3be 3d7f a53d ce04 773d
00000230: 66fa 983d a39b 80be 1b0a c73d 2d8f 203e
00000240: 2391 94be 74c9 7fbe 467a d7be 8388 863d
00000250: 76af 923d 3e66 b73e bff1 823e 9dd0 023d
00000260: 4d9d a93e 05d3 d63d c49b 78bd 2367 1cbd
00000270: 0ca2 cdbd 8224 91b9 c02e 4d3d dc85 5abd
00000280: cbc3 87bc 2d10 bfbd 1d01 19be c595 863d
00000290: 738e acbd 1788 283e a5e0 4ebe 64ae 62bd
000002a0: b160 a6be d90d 22bd e499 edbd dbaf e8bd
000002b0: 243f c83d e239 a1be 6667 563e 5bb5 bdbc
000002c0: d97c cc3d 73f1 173d ee01 533b 1703 efbd
000002d0: f001 5bbe 84b5 efbd 5bce 8c3e 81a2 913e
000002e0: 94de 97bd 1f79 81bd 0d80 203e dcf9 c5bd
000002f0: 5583 b63e bb33 f1be b4f8 05be 90b5 88bc
00000300: ede5 a83e 94e0 b0bd 0bdd 7f3c a57f fd3d
00000310: e092 093c 00a3 c83d 52b9 fe3d 98d9 9ebd
00000320: c45a 91be 3159 dfbe 0ae8 99bd deca 28bd
00000330: 4122 0cbe 71b9 febd 4f31 613d 45cd 873c
00000340: 3787 e1be 32e3 aabe 9b5b b2be 21a2 e53d
00000350: a124 853e 67a6 d23d 3732 7a3e 102e cd3d
00000360: 9e4d af3e f955 743d a2b0 26bd 8683 d53d
00000370: 386a e33d 6996 bdbd 299a aabc b63d 51bd
00000380: 5fca 3c3c 4d98 51bd d00d 67bd 9aa8 423e
00000390: 249e a73d fd78 0e3d b16c 95be 6c3a 88be
000003a0: 0466 fcbe 839b c7bc 5d7e 51be d2f1 253e
000003b0: a543 553c 9ce1 79be c90d 953e 50da b0bd
000003c0: 5dfc d8bb 8f66 36bb f2a6 9dbe 634c 97be
000003d0: 82cc aebd 42f5 8d3d a6a1 983e 2037 513d
000003e0: cae6 b1bb 2002 403d a281 0f3e c2c2 09be
000003f0: 9834 a83e 427f 01bf 43e9 53bd f473 00bd

layers.10.bias f4 [64]
-0.095410384 -0.031091068 0.09349717 0.027950699 0.021261716 0.04793598 -0.016627396 -0.054744188
0.07843998 0.1571758 0.01923314 0.08168195 0.07188559 -0.01971606 -0.0762832 0.027831642
-0.019359713 -0.016775709 -0.05370575 0.08988333 -0.007844463 0.07884695 0.10685829 -0.01044119
0.08824022 -0.18806602 -0.060147773 -0.14294362 -0.07342188 -0.038883183 -0.10668638 -0.051660098
-0.11356902 -0.021655831 -0.03820975 0.14995812 0.16064487 0.006592175 -0.1002974 0.11708116
0.07193678 -0.15080795 0.059675008 0.12082091 0.0731937 -0.02571143 0.11822025 0.14123724
0.009837257 0.063778 0.025756648 0.002652181 -0.07026113 -0.043619696 -0.11380233 0.14207013
-0.106717035 -0.019967344 -0.11864521 0.048308942 0.21533662 0.03394514 -0.012916516 0.13728021
00000000: 8566 c3bd b2b2 febc 727b bf3d ddf8 e43c
00000010: 0d2d ae3c 8558 443d 2d36 88bc 713b 60bd
00000020: 24a5 a03d b1f2 203e d18e 9d3c de48 a73d
00000030: c138 933d 9383 a1bc 5e3a 9cbd 2fff e33c
00000040: 4398 9ebc 366d 89bc 8ffa 5bbd c014 b83d
00000050: 1086 00bc 827a a13d 85d8 da3d 8611 2bbc
00000060: 4ab7 b43d 6194 40be 835d 76bd d05f 12be
00000070: 365e 96bd f943 1fbd 647e dabd 8a99 53bd
00000080: e096 e8bd 9267 b1bc d481 1cbd 9f8e 193e
00000090: 1780 243e 2c03 d83b b968 cdbd 3fc8 ef3d
000000a0: 9753 933d 666d 1abe c86d 743d f470 f73d
000000b0: 94e6 953d c7a0 d2bc 751d f23d 7fa0 103e
000000c0: 722c 213c 0a9e 823d 9bff d23c 37d0 2d3b
000000d0: 11e5 8fbd 91aa 32bd 3211 e9bd d57a 113e
000000e0: 768e dabd 8e92 a3bc 43fc f2bd 99df 453d
000000f0: 3481 5c3e 0f0a 0b3d cb9f 53bc 2f93 0c3e
